political_classificationhead_5_0005_160.pt/generic_classifier_head_epoch_1.pt (torch, 9337 bytes, 2 tensors)

mlp.weight f4 [2, 1024]
000000 81 e4 7c bc bc 69 25 bd 1a ef 44 bd 00 ec cc bc
       -0.015435339 -0.04038404 -0.048079588 -0.025014877
000010 b8 0a 9e 3d a1 19 16 3d 12 68 8a 3d 96 3b 85 3d
       0.07716888 0.036645535 0.06758131 0.06505506
000020 d0 02 0e 3e 37 d6 1a 3c 0f c1 91 3e 3c 2f 21 bd
       0.1386826 0.009450487 0.28467605 -0.039351687
000030 41 9b 8c bd 04 96 24 3e 9e 6f 82 3c c0 e1 3f 3d
       -0.0686555 0.16072851 0.015922364 0.04684615
000040 0b 98 e3 bd 2f f0 32 bc 0d 77 71 bd 71 0a 72 3e
       -0.11112984 -0.010921522 -0.058951426 0.23636796
000050 31 42 c0 3e 90 78 a3 3d 0d bf e5 bd 93 c1 5c bd
       0.375505 0.0798198 -0.11218081 -0.053895544
000060 b5 e4 94 bd fa b0 9d 3c 12 fb 7e be 2d e1 2d be
       -0.07270185 0.019249428 -0.24900463 -0.16980429
000070 21 a4 e6 bd 2d 14 c0 3e 76 82 49 3e a2 ef 2f bd
       -0.11261774 0.37515393 0.19678673 -0.04295314
000080 1b 62 09 be e9 cd b3 3d 32 80 c7 3c 56 25 0c 3e
       -0.1341633 0.087795086 0.02435312 0.13686118
000090 cd 23 2c ba 62 4a df 3d 47 22 5e 3d 6b da 91 3d
       -0.0006566614 0.10902859 0.05423191 0.07121738
0000a0 40 d8 9b be 1a 2b 50 bc c1 fa 5b 3d e8 0e 43 be
       -0.30438423 -0.012705589 0.053705934 -0.19048655
0000b0 22 60 53 3d 4f 26 f4 3b 13 c2 64 3c 0f 4e 78 3e
       0.05160535 0.007450856 0.0139622865 0.24248527
0000c0 4e d4 b4 3d bc f5 d1 bc 1a 69 51 3d bf ae 4b be
       0.088295564 -0.02562987 0.051125623 -0.19890879
0000d0 d2 86 60 3e 8e 9a 80 3e 54 2c 7d 3c b0 ac 9e bd
       0.2192643 0.25117916 0.015452463 -0.07747781
0000e0 13 09 71 3d dd a7 db 3d 21 4f 9b be c6 49 c9 3d
       0.058846544 0.10725377 -0.30333808 0.09828524
0000f0 0c 8c 1d 3e 65 7c 14 be 14 6c 90 bd 9d 5a fc 3c
       0.15385455 -0.14500578 -0.07051864 0.030804927
000100 ed b7 14 be 3c d8 36 bd e3 1b 63 3d 45 92 88 3d
       -0.14523287 -0.04463981 0.055446517 0.06668524
000110 de 84 8f 3d 38 4e 17 bd f6 78 ae bd ac be 01 be
       0.07007764 -0.03693983 -0.08519165 -0.12670392
000120 25 0f 89 3d 9e c0 01 be ad 1c 82 3d e6 a6 e6 bd
       0.06692342 -0.12671134 0.06353126 -0.11262302
000130 34 ed 7d bc 33 81 67 3d cd 27 1d 3e 26 81 a2 3c
       -0.015498448 0.0565197 0.15347214 0.019836973
000140 1e 5c aa be 0b ef 3c be 57 89 e9 bd f7 7b 7b bd
       -0.33273405 -0.18450563 -0.114031486 -0.06139752
000150 19 ba 9c bd a6 a4 7b be cb c0 b5 bd bf a2 06 be
       -0.07652683 -0.24574527 -0.08874663 -0.1314802
000160 b6 99 cc bd 18 25 5d 3d aa a1 86 3d b6 9f 18 bc
       -0.099902555 0.053990453 0.06573804 -0.009315422
000170 04 94 16 3d 72 f5 8d bd 85 b6 3b be b6 ea 77 3e
       0.036762252 -0.069315806 -0.18331344 0.24210629
000180 34 3c c6 bd a1 bb 17 bd 41 0f 07 3e 85 2b 26 be
       -0.096794516 -0.03704417 0.13189413 -0.16227539
000190 17 1c db 3d 32 5f c2 3e ac 8f a6 bd 1c 97 8b 3e
       0.10698717 0.37963253 -0.08132872 0.27263725
0001a0 cb 07 8e 3e 3a dc fe bd 28 32 cd bd 60 87 b1 bd
       0.2774032 -0.12444349 -0.10019332 -0.08668399
0001b0 f5 6a e3 bd b1 92 11 ba 26 c7 2a be d7 b2 90 3c
       -0.11104385 -0.000555317 -0.16677532 0.017663402
0001c0 cc 6d 52 bd 8e b4 9d be b5 6e 7c bd 03 d1 83 bd
       -0.05137424 -0.30801815 -0.061629016 -0.0643635
0001d0 01 79 ad 3d f1 2d 3e bd 20 bc f7 3c 6c b8 3c bd
       0.08470345 -0.046430532 0.030241072 -0.046074316
0001e0 23 26 9b 3d 55 ba 5e 3d 58 b9 47 3e 7a 2c 3e 3c
       0.075756334 0.05437692 0.19504297 0.011607284
0001f0 ce 68 57 be 0d a1 64 be 13 f5 80 3e e8 2d 5a bc
       -0.21036074 -0.22327061 0.25186977 -0.013316609
000200 49 cf 0f be 94 aa 9c ba 73 36 43 bd 16 56 ae 3d
       -0.14043917 -0.0011952692 -0.04765935 0.08512513
000210 81 7f de 3d cf 5d 37 3c be bb ed 3d c5 5d 2e 3d
       0.10864163 0.011191799 0.116080746 0.042569894
000220 d8 04 41 be 83 6a a7 3c b5 6a cd bd 25 bb b3 bd
       -0.18849504 0.020436531 -0.100301184 -0.08775929
000230 43 43 b3 3d 62 9a c1 bd 8e c1 9e bd 90 20 c0 3d
       0.087530635 -0.09453274 -0.077517614 0.09381211
000240 20 6f 37 3e 87 59 94 3e 33 67 db bd 02 f7 8a 3e
       0.17913485 0.28974554 -0.10713043 0.27141577
000250 30 b2 07 3e 67 0c 4d bd 79 a8 31 3e a1 6e 07 3c
       0.13251567 -0.050060656 0.17349423 0.008266122
000260 99 45 a5 bc 06 bd c2 3c eb 3a 72 bd e1 fe bc bc
       -0.020174788 0.023771774 -0.05913822 -0.023070754
000270 e1 d5 3f 3d 2f 25 33 bc 7e a1 28 3e 56 8e a1 3d
       0.04683483 -0.010934158 0.16467854 0.078884766
000280 92 08 d1 3c 7f 6c 41 3e db 90 aa 3b 93 72 af 3d
       0.025516782 0.18889044 0.0052052564 0.08566775
000290 b8 c2 71 be a5 0d f6 bd 37 67 97 bd 62 bb 9c 3b
       -0.23609436 -0.12014321 -0.073927335 0.00478308
0002a0 a5 3a 02 bc ee db 43 3c 2f 97 82 bd 1a bb b2 be
       -0.007948552 0.011954291 -0.06376492 -0.34908372
0002b0 98 4b 97 3e 6a 02 0c 3d e4 74 f2 3b 7e cb 67 bd
       0.2954986 0.03418199 0.0073991884 -0.05659055
0002c0 47 00 20 3d 1c 0d 05 bb 9e 1d d3 3c 3e 6e 16 be
       0.039062764 -0.0020302003 0.025770959 -0.14690492
0002d0 40 fd fd bd 8c f0 59 bc ac 79 d9 bd c8 60 a2 3c
       -0.12401819 -0.01330198 -0.1061891 0.01982154
0002e0 fe 9f f0 3d 5b d8 02 3f 7d 0a 46 3e 31 ca dd bd
       0.11749266 0.5111138 0.19339938 -0.108295806
0002f0 18 9b 45 3e ef 0a 9f 3c 72 d4 bb 3c 63 8b 54 3d
       0.19297445 0.019414393 0.02292845 0.051890742
000300 89 fa df bd 22 0c ea bc 84 bc 82 3e 6c fb f6 bc
       -0.10936458 -0.028570239 0.2553445 -0.030149184
000310 7e 24 81 3e c8 09 17 3d 1f 2d bc 3d 82 1e a1 bd
       0.25223154 0.036874563 0.09188294 -0.07867147
000320 12 4f 8c 3e e8 cc 35 bd 60 c1 a4 bd 61 23 93 bd
       0.27404076 -0.044384867 -0.08044696 -0.07184482
000330 84 c6 12 3d b5 c8 a9 bd 88 cb 85 3c 39 08 5b bd
       0.03583385 -0.08290235 0.016332403 -0.05347464
000340 04 45 b6 3d 83 ab a2 3d fd a1 76 be a4 63 f3 3c
       0.088998824 0.079428695 -0.24085231 0.029710598
000350 1b c5 a2 3c 7f 6f 60 3e 97 c9 2c 3e 1f 3b c8 3b
       0.019869378 0.21917532 0.16873775 0.0061105634
000360 9e b9 01 be 59 24 b6 bc 8c af d9 bc 82 4f 28 be
       -0.12668464 -0.022234129 -0.026572965 -0.1643658
000370 a5 b6 c0 3c 3a ff b2 bd 5e 49 97 be d1 67 9d 3d
       0.023524592 -0.08740087 -0.29548162 0.07685817
000380 f8 47 0f bd 01 58 ab 3b f4 22 8f bd 92 ab 6f bc
       -0.034980744 0.0052289967 -0.06989089 -0.014628308
000390 80 d5 1e 3c 18 78 14 bd 38 e7 96 be d2 95 08 be
       0.009694457 -0.036247343 -0.2947328 -0.13338402
0003a0 40 1c 3a be 2c 18 bd 3d 67 54 8c bd ae d9 1e 3c
       -0.18174839 0.09233126 -0.06852036 0.009695454
0003b0 ed a9 ad 3d f1 53 39 be d8 9d 2b 3d 33 fd 00 be
       0.084796764 -0.18098427 0.04189858 -0.12596588
0003c0 56 b4 3d 3e fc dd b3 3c e2 75 c8 3c eb f4 09 bd
       0.18525824 0.021956436 0.024470273 -0.033680838
0003d0 5c ff b6 3d a6 9b ec 3c ea 74 6a 3d ea f3 f8 bc
       0.08935425 0.028882813 0.057240404 -0.030389745
0003e0 48 d4 63 bc 0e f5 8e bd 18 36 a4 bd 19 12 50 3e
       -0.013905592 -0.06980334 -0.0801813 0.20319404
0003f0 ad 60 a9 be cc 02 8c 3d 20 38 bc 3e 56 b7 9b be
       -0.3308157 0.06836471 0.3676157 -0.30413312

mlp.bias f4 [2]
000000 38 f9 97 bc 2b 3f 66 bb
       -0.018551454 -0.0035132866
