political_classificationhead_5_0005_160.pt/generic_classifier_head_epoch_4.pt (torch, 9337 bytes, 2 tensors)

mlp.weight f4 [2, 1024]
0	0xbc6140fc	-0.013748404
1	0xbd50addc	-0.050947055
2	0xbdbd5820	-0.09245324
3	0x3d56d3a9	0.05244795
4	0xbd3fea27	-0.046854164
5	0x3cae9855	0.021312872
6	0x3e1aef1a	0.15130273
7	0x3e8b99d5	0.27265802
8	0x3e6bce55	0.23027928
9	0x3c9ef5a5	0.019404242
10	0x3e66c215	0.22534974
11	0xbdd7d4ed	-0.10538659
12	0xbe06deba	-0.13170901
13	0x3eac0fef	0.33605906
14	0x3cae8625	0.0213042
15	0x3debbb23	0.11510303
16	0xbe8e9260	-0.2784605
17	0xbd88e9e2	-0.066852346
18	0x3da1ac04	0.078941375
19	0x3e526522	0.20546392
20	0x3eebd3c7	0.4606001
21	0x3e711f9f	0.23547219
22	0xbe3162b6	-0.17322811
23	0xbb12d8af	-0.0022406986
24	0xbd426868	-0.04746285
25	0x3cd5a3a4	0.026079006
26	0xbe7a5f2a	-0.24450365
27	0xbead5184	-0.33851254
28	0xbe19a016	-0.15002474
29	0x3efbd13d	0.49183074
30	0x3ec96867	0.39337465
31	0xbe839c76	-0.25705308
32	0xbf085402	-0.53253186
33	0x3e6dcd93	0.23222952
34	0x3d80005d	0.06250069
35	0x3e9f2ebd	0.31090346
36	0xbd5918e7	-0.053002264
37	0x3e4ce351	0.2000859
38	0x3df10dc3	0.11770203
39	0x3d8abf98	0.06774825
40	0xbeee5756	-0.46551007
41	0xbe18361f	-0.14864396
42	0x3dafc9ef	0.08583438
43	0xbe01eb26	-0.12687358
44	0x3db0146d	0.08597646
45	0x3d882c4b	0.06649073
46	0x3d22004c	0.039551064
47	0x3ef58cd7	0.47959015
48	0x3e0a4c05	0.13505562
49	0x3d723e1f	0.059141275
50	0x3d484d2b	0.048901718
51	0xbe66fc4a	-0.22557178
52	0x3ed4ca2b	0.41560492
53	0x3e7626a1	0.24038173
54	0xbc0f3fc8	-0.008743234
55	0xbe0969aa	-0.13419214
56	0x3e0ad2d7	0.13556992
57	0x3dec8bde	0.11550115
58	0xbe9e467b	-0.30913147
59	0x3dfe3fa8	0.12414485
60	0x3d9157bb	0.070968114
61	0xbe14810e	-0.14502355
62	0xbe47eaa3	-0.195231
63	0x3d91a20d	0.07110987
64	0xbe65d012	-0.22442654
65	0xbe16bfe7	-0.14721642
66	0x3cee8d7e	0.029120203
67	0x3e09c585	0.13454254
68	0x3e930d5f	0.2872114
69	0xbdb6eff2	-0.08932485
70	0xbe2aa7e3	-0.16665606
71	0xbe4f04c6	-0.20216665
72	0x3dbc5bdf	0.091972105
73	0x3d2b34a9	0.041798268
74	0x3e4f59ae	0.20249054
75	0xbe393be8	-0.18089259
76	0xbd67d7e8	-0.05660239
77	0x3c8583b3	0.01629815
78	0x3e71dd1b	0.23619501
79	0xbdb7d922	-0.08976962
80	0xbed23e5d	-0.41063204
81	0xbe52a6ad	-0.20571394
82	0xbe41966e	-0.1890504
83	0xbddfe3c4	-0.10932115
84	0xbca79f17	-0.020461602
85	0xbe28dbf5	-0.16490157
86	0xbe00cc84	-0.12578017
87	0xbe3203c9	-0.17384256
88	0xbe3a4b80	-0.18192863
89	0x3e28149d	0.16414113
90	0x3e00b832	0.12570265
91	0xbd6fd790	-0.058555186
92	0x3dce8790	0.1008445
93	0xbe0bc726	-0.13650188
94	0xbe9cdaf9	-0.30635813
95	0x3e63c41e	0.22242782
96	0xbd922996	-0.07136838
97	0xbde324c6	-0.11090998
98	0x3ee20863	0.44147024
99	0xbeb87883	-0.36029443
100	0x3e06c0e4	0.1315952
101	0x3edba0d6	0.42896146
102	0xbe1b5b61	-0.15171577
103	0x3ebfa830	0.37433004
104	0x3ec6255c	0.38700378
105	0xbeaef544	-0.34171498
106	0xbe87a62f	-0.26493976
107	0xbdcdaab9	-0.100423284
108	0xbe2ae8fa	-0.16690436
109	0xbdb99bc0	-0.0906291
110	0xbe3e27a9	-0.18569817
111	0x3dd122ce	0.102117166
112	0xbe442cbc	-0.1915769
113	0xbeec4b06	-0.46150988
114	0xbd02e222	-0.03195394
115	0xbd81455b	-0.06312057
116	0xbd89dd67	-0.06731682
117	0xbd701f37	-0.05862352
118	0xbc0aadcb	-0.008464287
119	0xbe096532	-0.13417509
120	0x3d979862	0.074021116
121	0x3e1a8910	0.15091348
122	0x3e809b73	0.25118598
123	0xbdb0a7da	-0.08625765
124	0xbec25de9	-0.37962273
125	0xbe49daab	-0.19712321
126	0x3eb8bfd3	0.3608385
127	0x3cd734e1	0.026270332
128	0xbe835646	-0.2565176
129	0x3cdcd8f2	0.026958916
130	0xbd4f334e	-0.050586037
131	0x3e683a7f	0.22678564
132	0x3e248e72	0.16069964
133	0xbe026191	-0.12732531
134	0x3e7b87e5	0.24563558
135	0xbd196e02	-0.037458427
136	0xbe9a697d	-0.30158606
137	0xbda13f3c	-0.07873389
138	0xbe09cbcc	-0.13456649
139	0xbe3a98cb	-0.18222348
140	0x3deac866	0.11464004
141	0xbe57bf1b	-0.21068995
142	0xbddc1887	-0.10746866
143	0x3d5abace	0.053400807
144	0x3e88a1ee	0.26686043
145	0x3eeac481	0.45853046
146	0xbe5ea34c	-0.2174198
147	0x3e4c3152	0.19940689
148	0x3ef12d11	0.47104695
149	0xbd566de9	-0.052350912
150	0x3eb0a45b	0.34500393
151	0x3cabfa4e	0.020993378
152	0x3c2a6616	0.010400316
153	0x3d8cea52	0.068806306
154	0x3d56d6e1	0.05245102
155	0xbd8cc85e	-0.068741545
156	0x3cb8fbea	0.02258106
157	0x3de2eade	0.110799536
158	0x3edc70fe	0.43054956
159	0x3d9255eb	0.07145294
160	0x3df0ea68	0.117634594
161	0x3eb1e104	0.34741986
162	0x3d170928	0.036873966
163	0x3e34a555	0.17641194
164	0xbe26e6f8	-0.16299045
165	0xbe744c65	-0.23857267
166	0xbe427e6c	-0.18993539
167	0xbda573db	-0.08078738
168	0x3d069bd3	0.03286345
169	0xbcc7e9ea	-0.024403531
170	0xbd6ebe3c	-0.05828689
171	0xbec5ed49	-0.38657597
172	0x3ee493e3	0.4464408
173	0x3d581ff5	0.05276485
174	0x3d8c0d9a	0.06838532
175	0xbe16f0a5	-0.14740236
176	0x3d29de78	0.04147193
177	0xbda9c600	-0.08289719
178	0x3e055f0b	0.13024537
179	0xbeb445d1	-0.35209516
180	0xbe8c754d	-0.27433243
181	0x3d5eade4	0.054365054
182	0xbe93109b	-0.28723606
183	0x3dcbbdf0	0.09948337
184	0x3d0a924a	0.03383092
185	0x3f58602f	0.84521765
186	0x3eb7d0d0	0.359015
187	0xbea46826	-0.3211071
188	0x3e700eac	0.23443097
189	0xbd64e31d	-0.055880655
190	0x3dfb8810	0.12281811
191	0x3d600d5b	0.054700237
192	0xbe3a7a45	-0.18210705
193	0xbe22e67c	-0.15908235
194	0x3ef7e8f0	0.48419905
195	0xbd804cba	-0.062646344
196	0x3ec3b52a	0.38224155
197	0xbd68714c	-0.056748673
198	0x3d776aa1	0.060404424
199	0xbe0f90e3	-0.14020114
200	0x3e131c49	0.14366259
201	0xbdba12e6	-0.09085636
202	0xbdb13100	-0.08651924
203	0xbde60f16	-0.11233346
204	0x3e02e340	0.12782001
205	0xbde730de	-0.112886176
206	0xbca46ee5	-0.02007241
207	0x3d965314	0.07340065
208	0x3e3de30f	0.18543647
209	0x3d856bfb	0.06514736
210	0xbf00db7a	-0.50334895
211	0xbd401973	-0.04689927
212	0xbcdfb515	-0.027308026
213	0x3e79a0b4	0.2437771
214	0x3edccaef	0.43123576
215	0x3c2d2108	0.010566957
216	0xbe86491f	-0.26227662
217	0x3b674b68	0.0035292748
218	0xbcd1e05e	-0.025619682
219	0xbe453aa7	-0.19260655
220	0x3d257a5f	0.040399905
221	0xbe4afc06	-0.19822702
222	0xbf1b92b9	-0.60770756
223	0x3e14d90a	0.14535919
224	0xbd0b8c7b	-0.03406952
225	0x3c162b91	0.0091656605
226	0xbe1e9611	-0.15486933
227	0xbd800fe7	-0.06253033
228	0xbc9ec286	-0.019379865
229	0xbd44f115	-0.048081476
230	0xbec019a5	-0.37519565
231	0xbe3151ce	-0.17316362
232	0xbe973b75	-0.2953755
233	0x3e59f1ef	0.21283697
234	0xbe37892a	-0.17923418
235	0xbc06f08f	-0.008236065
236	0x3e4b7c6c	0.19871682
237	0xbe3d33a3	-0.18476729
238	0xbd860fa9	-0.06545956
239	0xbd592006	-0.053009056
240	0x3ed156bf	0.40886495
241	0xbc36754a	-0.011136362
242	0x3e1f0369	0.15528645
243	0xbd62c07e	-0.055359356
244	0x3e222be2	0.15837052
245	0x3dc4a1f7	0.09601205
246	0x3d9f4a34	0.07777825
247	0x3de6f4f4	0.1127719
248	0xbd2c663f	-0.042089697
249	0xbe2ffaa4	-0.17185456
250	0xbe1dff4d	-0.15429421
251	0x3e65d05f	0.22442769
252	0xbec8398f	-0.39106414
253	0x3e23308b	0.15936486
254	0x3f05fcf8	0.52339125
255	0xbef2220a	-0.47291595

mlp.bias f4 [2]
0	0xbca5d275	-0.020241955
1	0xbaee993c	-0.0018203626
