political_classificationhead_5_0005_160.pt/generic_classifier_head_epoch_5.pt (torch, 9337 bytes, 2 tensors)

mlp.weight f4 [2, 1024]
-0.027437039 -0.05844138 -0.10170087 0.058525473 -0.062827654 0.019774852 0.17400216 0.32160985
0.21551669 0.024419094 0.22142485 -0.0780461 -0.14073272 0.36940724 0.011527138 0.017922122
-0.30322564 -0.07563735 0.081446946 0.1901278 0.4538609 0.2524375 -0.15052408 0.02651599
-0.050533105 -0.009610206 -0.24625738 -0.3720868 -0.16544287 0.46179467 0.4111362 -0.28954408
-0.5686479 0.26303348 0.052219782 0.33124045 -0.07328015 0.24025624 0.1551038 0.08031513
-0.47007248 -0.1530182 0.09818462 -0.1641816 0.08731621 0.04703081 0.027618535 0.50315094
0.1340077 0.080455 0.04833299 -0.24510716 0.4436826 0.2730314 0.0684598 -0.13785508
0.16978283 0.09862488 -0.30159864 0.117475025 0.07165723 -0.13988982 -0.20359918 0.045106553
-0.23785745 -0.18003413 0.0428375 0.15669198 0.3106718 -0.10867846 -0.18291888 -0.19660278
0.12039505 0.054228466 0.21353416 -0.19300808 -0.05386575 -0.0027538936 0.23623204 -0.06450906
-0.41364017 -0.1700226 -0.19184758 -0.11131051 0.02950704 -0.14808357 -0.12896839 -0.17046267
-0.19821857 0.17666174 0.12919329 -0.049504176 0.10656225 -0.135238 -0.30585933 0.18211168
-0.047307625 -0.11640702 0.5324632 -0.3984502 0.16008537 0.39590594 -0.18944025 0.35869694
0.39893213 -0.35392094 -0.2917027 -0.09662537 -0.19333282 -0.12700367 -0.16653915 0.12870187
-0.1688057 -0.48783037 -0.1002179 -0.057372436 -0.12532634 -0.05001806 -0.035304092 -0.12090743
0.07348755 0.17414163 0.26456583 -0.09243501 -0.39464608 -0.1960243 0.3713523 0.06687828
-0.27462542 0.0354387 -0.04408448 0.25695527 0.13146952 -0.11017533 0.26387987 -0.005084473
-0.3248455 -0.112853505 -0.13480861 -0.17797247 0.10755893 -0.22133082 -0.10325101 -0.0025719174
0.26789403 0.44375926 -0.24275061 0.19969957 0.57164526 -0.03913197 0.3680574 0.03506436
0.056434494 0.09320635 0.08546268 -0.08291423 0.019207893 0.13286774 0.4271507 0.06811184
0.13503781 0.36839038 0.05292056 0.19406687 -0.13365321 -0.2463306 -0.1689888 -0.100377835
0.034006797 -0.030821534 -0.037792277 -0.42364573 0.44701487 0.07075164 0.07289407 -0.18428068
0.033401083 -0.08574726 0.17285386 -0.338192 -0.30154803 0.068479046 -0.25716344 0.10475571
0.0005232973 0.8889405 0.403504 -0.3776456 0.23215859 -0.048374932 0.12359196 0.04468476
-0.14661431 -0.1838661 0.5398225 -0.067302644 0.4125404 -0.07768501 0.08108265 -0.15622236
0.06364313 -0.10147795 -0.07702 -0.13414171 0.12535442 -0.10741346 -0.04609715 0.102361605
0.19735934 0.055860993 -0.5363782 -0.026874674 -0.0072114444 0.23704933 0.4615579 0.03322536
-0.26996264 0.03757461 -0.027113952 -0.14295997 0.04269656 -0.2259456 -0.6427641 0.116172746
-0.027413115 0.008461895 -0.14151068 -0.123852395 -0.02503297 -0.035359982 -0.39153242 -0.17546242
-0.34425843 0.24399775 -0.18809149 0.001929235 0.22272404 -0.1716424 -0.10536709 0.015287342
0.44975418 -0.008654362 0.19354191 -0.059312623 0.17325003 0.14932312 0.0742227 0.1606214
-0.04880769 -0.16953523 -0.16922255 0.21720801 -0.37917802 0.18661337 0.5332261 -0.47451872
00000000: a4c3 e0bc 3a60 6fbd 8c48 d0bd 68b8 6f3d
00000010: c9ab 80bd dffe a13c 9f2d 323e 0caa a43e
00000020: 68b0 5c3e 8d0a c83c 32bd 623e a2d6 9fbd
00000030: 3d1c 10be f222 bd3e 52dc 3c3c 6ad1 923c
00000040: 6440 9bbe c1e7 9abd a8cd a63d ddb0 423e
00000050: 7560 e83e 7d3f 813e fc22 1abe 1038 d93c
00000060: cdfb 4ebd 2074 1dbc e52a 7cbe 2982 bebe
00000070: db69 29be 5a70 ec3e 7280 d23e 1f3f 94be
00000080: e992 11bf 53ac 863e 69e4 553d 5998 a93e
00000090: e713 96bd bb05 763e 88d3 1e3e 427c a43d
000000a0: 57ad f0be ceb0 1cbe 0515 c93d 391f 28be
000000b0: d7d2 b23d 61a3 403d 4440 e23c 80ce 003f
000000c0: 5139 093e 97c5 a43d d0f8 453d 5ffd 7abe
000000d0: 5e2a e33e c6ca 8b3e a734 8c3d e229 0dbe
000000e0: 8ddb 2d3e d7fb c93d 236b 9abe bf96 f03d
000000f0: 07c1 923d 473f 0fbe 4e7c 50be a6c1 383d
00000100: e790 73be de5a 38be 6076 2f3d dd73 203e
00000110: 6010 9f3e d092 debd 164f 3bbe 3d52 49be
00000120: ae91 f63d ab1e 5e3d b3a8 5a3e e9a3 45be
00000130: 55a2 5cbd ab7a 34bb d0e6 713e 531d 84bd
00000140: a5c8 d3be 681a 2ebe b173 44be c4f6 e3bd
00000150: bfb8 f13c 38a3 17be 4a10 04be c48d 2ebe
00000160: cff9 4abe d1e6 343e 3f4b 043e e4c4 4abd
00000170: 4f3d da3d d57b 0abe 9899 9cbe 7c7b 3a3e
00000180: a4c5 41bd ce66 eebd 824f 083f aa01 ccbe
00000190: 6bed 233e 2fb4 ca3e a0fc 41be 20a7 b73e
000001a0: d540 cc3e 2035 b5be 0e5a 95be 86e3 c5bd
000001b0: 0af9 45be 400d 02be 3d89 2abe 6cca 033e
000001c0: 67db 2cbe e7c4 f9be 0b3f cdbd 5cff 6abd
000001d0: 8c55 00be bddf 4cbd 069b 10bd 519e f7bd
000001e0: a480 963d 2f52 323e 2c75 873e 914e bdbd
000001f0: 0d0f cabe 98ba 48be e321 be3e 7bf7 883d
00000200: b49b 8cbe 2c28 113d ed91 34bd a48f 833e
00000210: f29f 063e 9aa3 e1bd 431b 873e a79b a6bb
00000220: 2652 a6be bd1f e7bd 450b 0abe 6a3e 36be
00000230: db47 dc3d 8ca4 62be 4475 d3bd 9d8d 28bb
00000240: 6829 893e 6a34 e33e 9e93 78be 0b7e 4c3e
00000250: 5857 123f d848 20bd 0572 bc3e a59f 0f3d
00000260: db27 673d f9e2 be3d 0f07 af3d f0ce a9bd
00000270: df59 9d3c 7b0e 083e 7fb3 da3e 387e 8b3d
00000280: 5a47 0a3e aa9d bc3e 3bc3 583d 77b9 463e
00000290: 63dc 08be 173e 7cbe 660b 2dbe e592 cdbd
000002a0: b64a 0b3d 717d fcbc 13cc 1abd 18e8 d8be
000002b0: 22df e43e 3ce6 903d 7c49 953d 13b4 3cbe
000002c0: 93cf 083d 429c afbd 9a00 313e 8027 adbe
000002d0: 8164 9abe be3e 8c3d edaa 83be 298a d63d
000002e0: e32d 093a 9b91 633f 1498 ce3e c45a c1be
000002f0: fbba 6d3e cb24 46bd c81d fd3d 5e07 373d
00000300: 1022 16be 6547 3cbe cf31 0a3f f8d5 89bd
00000310: 7f38 d33e 5219 9fbd a90e a63d c1f8 1fbe
00000320: 5457 823d acd3 cfbd a9bc 9dbd 725c 09be
00000330: e95c 003e 97fb dbbd 5dd0 3cbd f6a2 d13d
00000340: 9118 4a3e 7fce 643d 1550 09bf 4728 dcbc
00000350: fb4d ecbb 0fbd 723e 5151 ec3e 5117 083d
00000360: 8b38 8abe d6e7 193d 141e debc 1964 12be
00000370: 97e2 2e3d 495e 67be 308c 24bf faeb ed3d
00000380: 7891 e0bc c3a3 0a3c 2de8 10be 53a6 fdbd
00000390: f111 cdbc a1d5 10bd f076 c8be 6cac 33be
000003a0: a442 b0be 8cda 793e 0e9b 40be 62de fc3a
000003b0: c511 643e 06c3 2fbe b3ca d7bd c277 7a3c
000003c0: 2e46 e63e 06cb 0dbc da2f 463e cbf1 72bd
000003d0: 7568 313e 29e8 183e 1202 983d f079 243e
000003e0: 93ea 47bd a59a 2dbe ad48 2dbe c76b 5e3e
000003f0: 9f23 c2be 9317 3f3e 8181 083f 1ef4 f2be

mlp.bias f4 [2]
-0.023181623 0.0011201375
00000000: 63e7 bdbc 94d1 923a
