political_classificationhead_5_0005_160.pt/generic_classifier_head_epoch_2.pt (torch, 9337 bytes, 2 tensors)

mlp.weight f4 [2, 1024]
00000000: 6122 88bb 0b69 02bd bb7b 8abd 73b1 4abb
00000010: 770b 2e3d d234 523d 328b e83d 2349 243e
00000020: b728 493e cdc9 5c3c a7d1 8b3e ef77 28bd
00000030: d730 c9bd 6540 6b3e 9d70 4b3c 8ef4 743d
00000040: a929 3dbe bf23 11bd 8786 14bc d591 553e
00000050: 3a04 dc3e 34ae 133e b52a 32be 5a92 a3bc
00000060: 8758 84bd b421 ad3c ec39 5dbe 268a 7fbe
00000070: 9009 18be 3163 ee3e 9d0e 8b3e 9189 e7bd
00000080: 2a72 9fbe 3f4e 203e cd2f 2b3d baed 533e
00000090: 583f 1fbc a296 1a3e 4f37 ae3d 5274 a03d
000000a0: a671 babe 3cc6 0abe 4ec9 843d b5c0 5bbe
000000b0: 7b70 923d 88c5 033d 0604 b73c 8d54 a63e
000000c0: 6fda be3d 2c7f b93c 4d00 923d 7275 48be
000000d0: 4f4d a83e e33b 5f3e 9ef1 063c 917e d5bd
000000e0: 7384 b03d d319 093e d38c adbe 132a ef3d
000000f0: 6d8b c33d cfa2 1abe dad3 fabd ebda 4f3d
00000100: acf8 34be 43a1 bfbd d8ec 023d 7ca7 d23d
00000110: edf5 263e 7a0f 7cbd 864c 09be d2f7 0cbe
00000120: d29e 963d f8da a2bd 909b fd3d 20ad 10be
00000130: 0498 debc 8fda 623d fd72 523e b2f0 3ebc
00000140: 22a1 bdbe 38dc 53be 19dd 07be 2765 ddbd
00000150: 3490 bdbc 0eb9 6bbe 9ac9 e5bd 9ecd 3dbe
00000160: 5539 16be 8c64 d63d a831 8c3d d4d1 0ebd
00000170: e9e4 8b3d 7cb2 ddbd 6ec7 78be 2533 653e
00000180: 186b a7bd 61ee 93bd 66d8 7c3e 850c 7fbe
00000190: b294 ea3d 302b df3e bd56 26be 97bf a63e
000001a0: 2e2d ac3e 07a3 56be a3e7 27be fc1c aabd
000001b0: 90fd f2bd 5a76 7bbd 669a 3abe 5024 9a3d
000001c0: e368 d6bd 3494 cfbe 7447 49bd b6a2 89bd
000001d0: e218 8c3d 0809 83bd 3040 123d e77e afbd
000001e0: 50e4 7e3d 5dd4 c13d 4e9c 883e 5cae 0ebc
000001f0: ceae 8ebe a030 69be 6b9a a73e 170f b2bc
00000200: 88be 42be 143b df3b 4ada 3cbd 6a50 e33d
00000210: 324e 203e bfdd 55bd 0008 3c3e a65a 363d
00000220: 599e 89be c38f 6ebc c49e 07be 7ed1 13be
00000230: f9e2 d93d 63ee 0fbe d53d cbbd 3c2c 713d
00000240: 9e01 4c3e 1fe1 c23e 3933 28be 4f39 933e
00000250: 4c94 933e 26fd 4bbd eadb 783e dbd5 eb3c
00000260: c0d4 ce3c 25d1 393d 7ad9 073c 511d 0ebd
00000270: e242 4a3d 7d65 193d b5fd 9d3e 27b2 973d
00000280: 2037 5b3d 51af 863e d5d3 cc3c 1338 043e
00000290: 8b0c 4ebe ef39 10be 37f1 97bd 25fe 4fbc
000002a0: 2102 153b 8426 063b 7acd 85bd 8129 c3be
000002b0: 6212 d73e 9dfc 1b3d 8b27 283d 2448 c0bd
000002c0: 0335 083d 43e2 b5bc 416e ca3d 1ad6 8cbe
000002d0: 0687 5fbe bcd2 e93a e11b 2bbe 1512 313d
000002e0: 3fe3 8d3d 2436 2a3f d9e6 883e a311 54be
000002f0: 2c4a 6e3e 9c58 c9bb dacb 823d 324d b63d
00000300: 2d35 14be 9b38 78bd c2e6 bf3e d1bd 3fbd
00000310: 1759 b63e cf39 323c e5ff 693d 911c dfbd
00000320: 66b8 843e 20f1 7cbd 7926 78bd 444a a3bd
00000330: f233 a33d 4aaf dabd 29a5 a13c ea72 5abb
00000340: f9f3 043e 7f9e 803d 10cb bcbe 51f5 9c3b
00000350: 3f4b 963b 143b 7e3e 399b 913e 5a7a 1d3b
00000360: 1e81 37be f57b abbc 06f8 cbbc 6d02 02be
00000370: b405 4c3c c0d7 0dbe 2679 e5be c3c0 213e
00000380: 7460 25bd 250a 4b3c 511d 06be d4ef 5a3c
00000390: bad8 bc3b c8cf 28bd 3d7d c0be 31b5 11be
000003a0: 17dd 76be a7be 353e 7240 fabd d010 a1bb
000003b0: 056f 043e bbe0 08be bbb5 1c3c 91da c6bd
000003c0: 9cc7 8e3e aefb 1e3c 6394 a13d 442e 43bd
000003d0: 9f7c e83d 403f 693d 32ee 8c3d 5873 373d
000003e0: b3bd dcbc 07de dabd a82c e6bd b4d6 573e
000003f0: 12b6 c2be 3f74 eb3d 0eec e33e f33d c6be
-0.004154489 -0.031838458 -0.06761881 -0.0030928522 0.042491402 0.051319905 0.113546744 0.16043524
0.19644438 0.013475847 0.2730839 -0.041130003 -0.098237686 0.22973783 0.012416986 0.059803538
-0.18472923 -0.03543448 -0.009065277 0.20856412 0.42971975 0.14421922 -0.17399104 -0.019967247
-0.06462198 0.021134235 -0.21604127 -0.24955043 -0.14847398 0.46560052 0.27159587 -0.113055356
-0.31141788 0.15654849 0.041793633 0.20696154 -0.009719692 0.15096524 0.08506643 0.07834686
-0.36414832 -0.13552183 0.06483708 -0.2146023 0.0715036 0.032170802 0.022340786 0.32486382
0.09319007 0.022643648 0.071289636 -0.19576052 0.32871482 0.21800189 0.008236317 -0.10424531
0.08619013 0.13388757 -0.33896503 0.11677947 0.09548078 -0.15101169 -0.12247439 0.050745886
-0.17672986 -0.0935693 0.031964153 0.10285851 0.1630475 -0.061538197 -0.13408098 -0.13766411
0.07354511 -0.07951921 0.12383187 -0.14128542 -0.027172096 0.055384215 0.20551677 -0.011654066
-0.37036997 -0.20689476 -0.13267936 -0.10810309 -0.02314005 -0.23019812 -0.11220093 -0.18535468
-0.14670308 0.104683965 0.06845409 -0.034868076 0.068307705 -0.10825059 -0.24294826 0.22382791
-0.081747234 -0.072232015 0.24691924 -0.2490712 0.11454143 0.43587637 -0.16244026 0.32568046
0.3362822 -0.20960627 -0.16396956 -0.083063096 -0.118647695 -0.061392166 -0.18222961 0.07526457
-0.10469224 -0.40542758 -0.04914041 -0.06720488 0.068406835 -0.06398207 0.035705745 -0.085691266
0.062229455 0.09464333 0.2668175 -0.008708563 -0.2786774 -0.22772455 0.32735 -0.021735711
-0.19017994 0.0068124626 -0.046106614 0.11099322 0.15654829 -0.052213427 0.18362427 0.044520043
-0.26878622 -0.014560643 -0.13244158 -0.14435384 0.10638995 -0.14055781 -0.09923903 0.058880076
0.19922492 0.3806238 -0.1642579 0.2875466 0.2882408 -0.049801968 0.2430264 0.028788498
0.025247931 0.04536547 0.008291597 -0.034695927 0.04938019 0.037450302 0.30857626 0.07407027
0.05351937 0.2630563 0.025003353 0.12912016 -0.20121972 -0.140846 -0.07419055 -0.01269487
0.0022736865 0.0020469734 -0.06533332 -0.38117602 0.42006212 0.038082708 0.041053336 -0.0938876
0.03325368 -0.022202617 0.098843105 -0.27507097 -0.21828851 0.0017839293 -0.16709854 0.043230135
0.069281094 0.6648886 0.26738623 -0.20709853 0.23270482 -0.0061445963 0.06386538 0.089014426
-0.1447341 -0.06060086 0.37480742 -0.046811882 0.35614845 0.01087804 0.057128806 -0.108941205
0.25921935 -0.061753392 -0.060583565 -0.079731494 0.07968892 -0.10677965 0.019732075 -0.0033332654
0.12983693 0.06280231 -0.36873674 0.004789986 0.0045866068 0.24827224 0.28438738 0.0024029226
-0.17920348 -0.02093313 -0.02489854 -0.12696238 0.012452532 -0.13851833 -0.4481899 0.15796189
-0.040375188 0.012392555 -0.13097121 0.013362844 0.0057631405 -0.04121378 -0.3759555 -0.14229275
-0.24107777 0.1774851 -0.12219323 -0.0049153343 0.12932976 -0.13366978 0.009564812 -0.09709657
0.27886665 0.00970356 0.07889631 -0.047651544 0.113518946 0.056945086 0.0688137 0.044787735
-0.026945924 -0.106868796 -0.11238986 0.21077996 -0.38029534 0.114967816 0.44516033 -0.38719139

mlp.bias f4 [2]
00000000: 3d4b 9abc 4fa2 53bb
-0.018834705 -0.0032292788
