political_classificationhead_5_0005_160.pt/generic_classifier_head_epoch_3.pt (torch, 9337 bytes, 2 tensors)

mlp.weight f4 [2, 1024]
0	0xbca170e9	-0.01970716
1	0xbd2b0ec6	-0.041762136
2	0xbdad8242	-0.0847211
3	0x3cb7854f	0.022402434
4	0xbbfbe3cb	-0.007687067
5	0x3c79defc	0.0152509175
6	0x3dcf3db3	0.1011919
7	0x3e68f013	0.22747831
8	0x3e3facc9	0.18718256
9	0x3c877877	0.016536934
10	0x3e68cfa2	0.22735456
11	0xbd424033	-0.047424506
12	0xbde2aadb	-0.11067744
13	0x3e93b019	0.2884529
14	0x3cac6f86	0.021049272
15	0x3d463459	0.048389766
16	0xbe7c42d9	-0.24634875
17	0xbd63d0b2	-0.05561895
18	0x3d16361b	0.036672693
19	0x3e462a42	0.19352058
20	0x3ee1c087	0.440922
21	0x3e4aa035	0.19787677
22	0xbe139e76	-0.14415917
23	0x3ad83b28	0.0016497122
24	0xbd8ea815	-0.06965653
25	0x3d365e1d	0.044523347
26	0xbe892f58	-0.26793933
27	0xbe982d54	-0.29722083
28	0xbe1e164d	-0.15438195
29	0x3ef2bff0	0.47412062
30	0x3eb7a8d2	0.35870987
31	0xbe63cd72	-0.2224634
32	0xbef31ace	-0.47481388
33	0x3e6d0289	0.23145498
34	0x3db70f1f	0.08938431
35	0x3e7f1cc7	0.24913321
36	0xbcc4b2da	-0.024011064
37	0x3e52e9ab	0.2059695
38	0x3dd8a30a	0.10577972
39	0x3d889660	0.06669307
40	0xbedd24d7	-0.4319217
41	0xbdc20005	-0.0947266
42	0x3d847d13	0.064691685
43	0xbe4587f3	-0.19290142
44	0x3da3358e	0.07969199
45	0x3d157674	0.03648992
46	0x3d1a63f3	0.037692975
47	0x3ee6b6c6	0.4506132
48	0x3e035c1d	0.12828107
49	0x3d539369	0.051654253
50	0x3d8599ee	0.065235004
51	0xbe827604	-0.25480664
52	0x3eb3e554	0.351359
53	0x3e5f4465	0.21803434
54	0x3d84bab3	0.064809225
55	0xbdce8828	-0.100845635
56	0x3df1be70	0.11803901
57	0x3e0f3eec	0.13988847
58	0xbea7c55f	-0.3276777
59	0x3de4c116	0.11169641
60	0x3dac3af5	0.08409683
61	0xbe195953	-0.1497548
62	0xbe248ed0	-0.16070104
63	0x3d07708f	0.03306633
64	0xbe71b60e	-0.23604605
65	0xbe15a63a	-0.14614192
66	0x3d03ca40	0.032175303
67	0x3e070953	0.1318715
68	0x3e73bef3	0.2380331
69	0xbdd3692b	-0.103227936
70	0xbe335598	-0.1751312
71	0xbe38c115	-0.18042405
72	0x3dde89a8	0.108660996
73	0xbc98a220	-0.018631995
74	0x3e1b2550	0.15150952
75	0xbe25e274	-0.16199666
76	0xbd687d6b	-0.056760233
77	0x3cd44667	0.025912477
78	0x3e582fa9	0.21111931
79	0xbdc16ce4	-0.09444597
80	0xbed3fde9	-0.41404656
81	0xbe27db4f	-0.16392253
82	0xbe3312b5	-0.17487605
83	0xbde74767	-0.11292916
84	0xbcfee13e	-0.031113263
85	0xbe52e54c	-0.20595282
86	0xbddf4df8	-0.10903543
87	0xbe2dbf23	-0.16967444
88	0xbe0376a6	-0.1283823
89	0x3e1d1213	0.15338926
90	0x3dc897a7	0.097945504
91	0xbd4fdc16	-0.050747
92	0x3dad85db	0.084727965
93	0xbde5ed9f	-0.11226963
94	0xbe884d10	-0.26621294
95	0x3e6465fe	0.22304532
96	0xbd9caca3	-0.07650115
97	0xbdaf2485	-0.085518874
98	0x3eb8b7da	0.36077768
99	0xbea1b37d	-0.3158225
100	0x3e0ce65f	0.13759755
101	0x3ed49637	0.41520855
102	0xbe293212	-0.16523007
103	0x3ea80f36	0.32824105
104	0x3eb8d331	0.36098626
105	0xbe8f84d2	-0.2803102
106	0xbe586526	-0.21132335
107	0xbdd24bf1	-0.10268391
108	0xbe17f8a1	-0.14840938
109	0xbd8a4a9a	-0.0675251
110	0xbe5cb569	-0.21553577
111	0x3d889dd5	0.06670729
112	0xbe2693bf	-0.16267298
113	0xbed5f202	-0.417862
114	0xbcd236cb	-0.025660893
115	0xbd939532	-0.07206191
116	0xbc13c139	-0.009018236
117	0xbd70c8ef	-0.058785375
118	0xbae9affa	-0.0017828934
119	0xbdd1d9e8	-0.102466404
120	0x3d8c4e03	0.06850817
121	0x3e05f839	0.1308297
122	0x3e85f647	0.26164457
123	0xbd091eec	-0.033476755
124	0xbeaea470	-0.3410983
125	0xbe506103	-0.20349507
126	0x3eb9e236	0.36305398
127	0x3c762c26	0.015025174
128	0xbe77899e	-0.2417359
129	0x3c8182f3	0.015809512
130	0xbcdcc77a	-0.026950587
131	0x3e41ace1	0.18913604
132	0x3e1c6f50	0.15276837
133	0xbdd70757	-0.10499447
134	0x3e642441	0.22279455
135	0xbab7598c	-0.0013988479
136	0xbe8d7659	-0.27629355
137	0xbd7469f9	-0.059671376
138	0xbe1abd7c	-0.15111345
139	0xbe1908aa	-0.14944711
140	0x3dce1eb2	0.100644484
141	0xbe32e994	-0.17471915
142	0xbdc8d8a7	-0.09806948
143	0x3d0d521c	0.034502134
144	0x3e412e64	0.18865353
145	0x3ee38213	0.44435176
146	0xbe26a06e	-0.16272137
147	0x3e69fc58	0.22850168
148	0x3ecc3067	0.39880678
149	0xbcfdfb86	-0.031003725
150	0x3e970000	0.29492188
151	0x3cffc1ef	0.031220404
152	0x3d2ea96d	0.042642046
153	0x3d87f407	0.066383414
154	0xbc92899c	-0.017887883
155	0xbd4d062e	-0.05005472
156	0x3d2f95ae	0.042867355
157	0x3dbce55a	0.09223433
158	0x3ea26069	0.3171418
159	0x3d9e30ca	0.077241495
160	0x3dae8fc7	0.08523517
161	0x3e9ca23e	0.3059253
162	0x3d239d0e	0.0399447
163	0x3e2687a8	0.16262686
164	0xbe2faac2	-0.17154983
165	0xbe369dc0	-0.17833614
166	0xbe4230f8	-0.18963993
167	0xbda201f0	-0.07910526
168	0x3d0afbb9	0.033931468
169	0xbc770568	-0.015076973
170	0xbd9d1afa	-0.07671161
171	0xbec313b1	-0.3810096
172	0x3ed47a4f	0.41499564
173	0x3d8339ac	0.064074844
174	0x3d95280a	0.072830275
175	0xbe04ec59	-0.12980784
176	0x3d09c1f6	0.03363224
177	0xbd95e9e6	-0.07320003
178	0x3e2bbb84	0.1677075
179	0xbeac379f	-0.33636186
180	0xbe8b3777	-0.27190754
181	0x3c7bceea	0.015369156
182	0xbe84405f	-0.2583036
183	0x3d9ea197	0.077456646
184	0x3d0d8e1c	0.034559354
185	0x3f462193	0.7739498
186	0x3eac1b0a	0.3361438
187	0xbe8d513a	-0.27601033
188	0x3e663861	0.22482444
189	0xbd5ec60f	-0.054388102
190	0x3dd450f1	0.10367001
191	0x3da93ef4	0.082639605
192	0xbdf5180b	-0.119674765
193	0xbdf9226a	-0.12164767
194	0x3ee814d9	0.45328405
195	0xbd65b428	-0.056080014
196	0x3eb7e285	0.35915008
197	0xbcce2f32	-0.025168989
198	0x3d494df5	0.04914661
199	0xbe0152cd	-0.12629242
200	0x3dc6c544	0.09705594
201	0xbda6db4d	-0.08147297
202	0xbd9f6925	-0.077837266
203	0xbdc84cd1	-0.097802766
204	0x3dbabfe9	0.09118635
205	0xbde07b48	-0.10961014
206	0x3bb136c8	0.0054081418
207	0x3d4a8eee	0.049452715
208	0x3e218c37	0.15776144
209	0x3d917909	0.07103164
210	0xbee08ee0	-0.43859005
211	0xbd40457b	-0.04694126
212	0xbc6a3f73	-0.014297354
213	0x3e637a07	0.22214518
214	0x3ec58f05	0.38585678
215	0xb99612cc	-0.00028624234
216	0xbe697edb	-0.22802298
217	0x3b59a580	0.0033210218
218	0xbcd0edd3	-0.025504028
219	0xbe37eed0	-0.17962193
220	0x3cef0d85	0.029181251
221	0xbe3611cf	-0.17780231
222	0xbf0ee5c2	-0.5581933
223	0x3e20fd34	0.1572159
224	0xbd012199	-0.03152618
225	0x3c51908c	0.01279081
226	0xbe15aaac	-0.14615887
227	0xbd4b625e	-0.049654357
228	0xbc96ac2d	-0.018392647
229	0xbd33e124	-0.043915883
230	0xbecd7fa9	-0.4013646
231	0xbe26d373	-0.16291599
232	0xbe6c4a57	-0.23075233
233	0x3e45da4e	0.19321558
234	0xbe56a722	-0.20962194
235	0xbbaae1b2	-0.0052148933
236	0x3e3cbdfc	0.18431848
237	0xbe14ea8a	-0.14542595
238	0xbc91948f	-0.017771034
239	0xbd80e6c8	-0.06294018
240	0x3ebb9d4e	0.3664345
241	0x3c3f740b	0.011685382
242	0x3dfdffc8	0.12402302
243	0xbd42954c	-0.04750566
244	0x3e135455	0.14387639
245	0x3dc7352f	0.09726941
246	0x3db67f5c	0.089110106
247	0x3dfe8574	0.12427798
248	0xbcec8585	-0.02887226
249	0xbe0e0e83	-0.13872723
250	0xbe08ba27	-0.13352261
251	0x3e64ff64	0.22363049
252	0xbed2fae9	-0.41207054
253	0x3e1a7dbf	0.15087031
254	0x3f06c8d0	0.52650166
255	0xbee23c16	-0.44186467

mlp.bias f4 [2]
0	0xbc9f3ec8	-0.019439116
1	0xbb2bf830	-0.002624046
